houseModel.pt (torch, 9709 bytes, 7 tensors)

fc1.weight f4 [26, 13]
0.19679482 -0.11716586 -0.011317878 -0.3592229 0.2945181 -0.90533495 0.02486891 -0.1424916
0.18083294 0.30614972 -0.14639059 0.010638436 -0.012574106 0.27664766 0.058168113 0.012704343
0.109493345 -0.13839206 -0.07633081 -0.021026373 0.11900997 0.0032447875 -0.2486201 -0.13914394
-0.1444911 -0.04255283 -0.3296215 0.1730798 0.06481777 0.5082037 -0.001354732 0.04499812
0.036157507 -0.24036464 -0.12491094 0.1592197 0.14081523 0.16236302 -0.1723158 0.20517126
0.18811882 -0.24785787 -0.18277584 -0.1157379 0.03785211 -0.2562726 -0.1267454 0.11022955
-0.22497626 0.0953719 -0.06754939 0.20733973 -0.7741212 0.14585723 -0.051277433 -0.4604634
-0.3786458 0.5400995 -0.3299298 0.12484851 -0.14836998 -0.044832576 -0.008471199 0.20060231
0.13043429 0.0018976331 -0.16230153 -0.0122847855 -0.044213206 -0.054672033 -0.25317472 0.08267307
0.22225568 0.18162283 -0.067417115 0.1396611 -0.119878694 0.123128 0.14561717 -0.049263023
0.038674667 0.0015266623 -0.16272184 0.782776 0.29779908 0.11951984 0.0556015 0.15363309
0.31428796 0.30136237 -0.23257731 0.41932604 0.27111053 -0.2754794 1.1881125 -0.189407
-0.32510886 -0.094577685 -0.22484674 0.18216532 0.018226646 0.05297677 0.3030462 -0.56618315
0.18440922 -0.11089109 -0.07175323 -0.49051455 0.40961272 -0.19507015 0.1434961 0.03916547
-0.12133634 0.18404707 0.1426288 0.2928447 -0.02533229 0.01910454 0.16780746 0.026848882
0.040925354 -0.042970076 0.13903028 0.09103605 -0.10375558 0.24376395 -0.1021564 0.24886027
-0.1296949 -0.19205189 -0.34557393 0.09251832 0.22378162 -0.47333792 0.13044648 -0.54928994
-0.09484842 0.0017379632 0.01763406 0.0036413993 0.035413325 0.092531994 0.25720713 -0.16486399
-0.088223144 -0.20400304 0.32441565 -0.2905379 0.3904619 0.26007417 0.14151601 0.1516398
0.05411112 -0.13264874 0.27132085 -0.1757114 -0.12304494 0.34513864 0.35357517 -0.6410579
-0.13164097 0.5948578 0.2020181 -0.92267066 -0.3312484 0.113898456 -0.13289681 -0.12003566
-0.3214541 0.25763476 -0.06546496 0.20307833 -0.19840279 -0.01636866 -1.2655647 -0.0845729
0.29727906 -0.08109528 0.16682385 0.5639955 -0.026050596 0.10982921 0.26013836 -0.1736982
0.17594737 -1.1260948 0.06660635 0.18413018 0.19401014 0.21009293 0.3191541 -0.009112564
-0.21490371 0.0069632772 0.6591808 0.37170413 0.2105957 0.16891018 -0.67791915 -0.005267268
0.2693446 0.1708033 0.014260465 -0.13323809 -0.01669251 0.30940703 0.08360418 0.16542232
-0.24848424 0.15585357 -0.2663646 -0.050287053 0.09850448 -0.26775774 0.014779955 0.19314435
-0.073060855 -0.06689416 -0.24929798 -0.06787546 0.26639095 -0.25856727 0.08776445 0.25144154
-0.3363104 -0.17158443 0.72423416 -0.07542561 -0.0023290175 0.11443303 0.30805707 0.23462814
-0.19863646 0.15303007 -0.667189 0.19528748 0.1582327 -0.15617079 0.31926814 -0.6226865
0.122483484 0.015685916 -0.06148731 -0.019975228 0.051037267 0.08893124 -0.19642106 -0.09982168
0.09528502 0.011435217 0.6023579 -0.062001858 0.71399593 0.04437492 -0.31933546 -0.13674834
00000000: 9584 493e a8f4 efbd 9f6e 39bc 10ec b7be
00000010: 14cb 963e 08c4 67bf e2b9 cb3c 51e9 11be
00000020: 452c 393e a8bf 9c3e 6ae7 15be d64c 2e3c
00000030: a003 4ebc c3a4 8d3e b041 6e3d e025 503c
00000040: 0c3e e03d a6b6 0dbe 5453 9cbd 803f acbc
00000050: 80bb f33d 80a6 543b 4496 7ebe c07b 0ebe
00000060: 7af5 13be e04b 2ebd 26c4 a8be d53b 313e
00000070: 2ebf 843d a319 023f 4391 b1ba f34f 383d
00000080: e519 143d 2622 76be 4fd1 ffbd 7d0a 233e
00000090: de31 103e 7e42 263e 8e73 30be 6a18 523e
000000a0: 38a2 403e 74ce 7dbe 9729 3bbe fe07 edbd
000000b0: d00a 1b3d 2a36 83be 8cc9 01be 08c0 e13d
000000c0: 2d60 66be 5852 c33d 5657 8abd de50 543e
000000d0: cf2c 46bf 995b 153e 4908 52bd dcc1 ebbe
000000e0: dddd c1be f643 0a3f 8fec a8be 93b0 ff3d
000000f0: 4dee 17be 5da2 37bd c9ca 0abc b16a 4d3e
00000100: 9190 053e 00ba f83a 5f32 26be 2046 49bc
00000110: e818 35bd c8ef 5fbd 1ea0 81be 8050 a93d
00000120: fe96 633e 56fb 393e fc11 8abd 5203 0f3e
00000130: f682 f5bd 882a fc3d ab1c 153e 06c8 49bd
00000140: 5469 1e3d 491a c83a 8ea0 26be 0264 483f
00000150: 1f79 983e d1c6 f43d 66be 633d fe51 1d3e
00000160: 5aea a03e 2b4c 9a3e bf28 6ebe e7b1 d63e
00000170: 00cf 8a3e a30b 8dbe 1214 983f e9f3 41be
00000180: ab74 a6be f2b1 c1bd 393e 66be 8c89 3a3e
00000190: 0c50 953c 2bfe 583d df28 9b3e 61f1 10bf
000001a0: c5d5 3c3e de1a e3bd 5cf3 92bd b924 fbbe
000001b0: c2b8 d13e 78c0 47be a4f0 123e f96b 203d
000001c0: 307f f8bd d676 3c3e 490d 123e beef 953e
000001d0: aa85 cfbc 2081 9c3c b8d5 2b3e 30f2 db3c
000001e0: 58a1 273d 6401 30bd f45d 0e3e 1c71 ba3d
000001f0: ce7d d4bd 429d 793e 6037 d1bd 3ad5 7e3e
00000200: bdce 04be 40a9 44be 11ef b0be 3f7a bd3d
00000210: 0227 653e 5959 f2be c393 053e 449e 0cbf
00000220: e33f c2bd 5ecc e33a 4e75 903c 8ba4 6e3b
00000230: 900d 113d 6a81 bd3d a7b0 833e 1bd2 28be
00000240: 56ae b4bd 2ce6 50be cf19 a63e 62c1 94be
00000250: 9fea c73e 7128 853e 93e9 103e 7747 1b3e
00000260: 9fa3 5d3d 12d5 07be 91ea 8a3e b0ed 33be
00000270: fcfe fbbd 03b6 b03e ce07 b53e 5f1c 24bf
00000280: e4cc 06be 9a48 183f d5dd 4e3e 2534 6cbf
00000290: 6499 a9be 9843 e93d 1a16 08be 42d5 f5bd
000002a0: a295 a4be b4e8 833e 7e12 86bd c4f3 4f3e
000002b0: 1a2a 4bbe 9117 86bc 06fe a1bf 8e34 adbd
000002c0: f634 983e 4815 a6bd dfd3 2a3e 0262 103f
000002d0: 0f68 d5bc 23ee e03d db30 853e f1dd 31be
000002e0: 8c2b 343e e023 90bf e968 883d 9f8c 3c3e
000002f0: 98aa 463e 9a22 573e 2b68 a33e dd4c 15bc
00000300: b80f 5cbe 342c e43b 13c0 283f 0150 be3e
00000310: 66a6 573e caf6 2c3e 1c8c 2dbf 0c99 acbb
00000320: 89e7 893e 0fe7 2e3e baa4 693c 916f 08be
00000330: bbbe 88bc 996a 9e3e ab38 ab3d 7864 293e
00000340: a772 7ebe 1498 1f3e f160 88be ccf9 4dbd
00000350: b8bc c93d 8b17 89be a027 723c a2c7 453e
00000360: eea0 95bd ceff 88bd f847 7fbe 4a02 8bbd
00000370: 6564 883e ee62 84be d9bd b33d f2bc 803e
00000380: e030 acbe d4b3 2fbe 6967 393f be78 9abd
00000390: 6ea2 18bb dd5b ea3d a8b9 9d3e 5c42 703e
000003a0: 5b67 4bbe eab3 1c3e e6cc 2abf 71f9 473e
000003b0: c107 223e 3ceb 1fbe 1d77 a33e 6268 1fbf
000003c0: 9fd8 fa3d c07f 803c 1eda 7bbd 17a3 a3bc
000003d0: 740c 513d 9521 b63d 9a22 49be 4f6f ccbd
000003e0: cb24 c33d c75a 3b3c 2134 1a3f a9f5 7dbd
000003f0: 70c8 363f 7ac2 353d f07f a3be c207 0cbe

fc1.bias f4 [26]
-0.026948037 0.19907647 0.25760412 -0.18491705 -0.3379844 -0.2273297 0.44756344 -0.1878275
-0.15420803 0.090959966 -0.060247626 0.3162023 0.4741867 -0.30907437 -0.3547706 0.09520615
-0.22476423 0.059164114 0.20027179 0.12920907 0.19551769 0.15221375 0.13512541 -0.08540615
-0.47193396 -0.495795
00000000: 21c2 dcbc b4da 4b3e b0e4 833e e55a 3dbe
00000010: 4b0c adbe 1ec9 68be 0927 e53e da55 40be
00000020: b6e8 1dbe 3849 ba3d 37c6 76bd 45e5 a13e
00000030: 99c8 f23e ff3e 9ebe 7ea4 b5be 71fb c23d
00000040: 9828 66be 1256 723d 0c14 4d3e 624f 043e
00000050: ca35 483e ecdd 1b3e 515e 0a3e 6be9 aebd
00000060: 54a1 f1be d8d8 fdbe

fc2.weight f4 [26, 26]
0.07366842 0.04120569 0.0055218996 0.13135795 0.06511209 -0.020154595 -0.13754302 -0.07211092
-0.10036646 0.08609603 0.030104628 0.13438949 -0.055698726 0.18979912 0.07530362 0.16767104
-0.0021627247 0.00752327 -0.15483482 -0.20442836 0.064319804 0.104472294 0.1438123 0.1494184
0.07057544 0.018528624 0.13271224 -0.17750128 -0.03758687 0.004946798 0.058694664 -0.038504973
0.18813168 -0.046659674 -0.15355907 0.039110124 -0.00467465 -0.013489917 -0.07929954 -0.38405046
0.021635117 0.113018304 -0.05896026 0.08224106 0.02802416 0.19816367 0.0039155204 0.1519381
0.039915603 0.050090365 0.15870768 -0.20982756 0.13615443 -0.051680148 0.07963122 -0.15441442
-0.32170135 -0.025111824 -0.10241199 -0.1711843 -0.13130465 0.045226157 0.35610512 0.05045744
-0.18214588 0.20865987 0.0049575614 -0.09448665 -0.054476187 -0.09972084 0.11999347 -0.18634039
0.11212238 0.10420714 -0.7644731 0.22157271 0.087005906 0.21285537 -0.14378142 -0.19293135
0.02766783 0.17922412 -0.16978815 0.17941512 0.19605376 0.083994254 -0.32079604 0.13823815
-0.65482515 0.2514393 0.62361336 -0.26320133 -0.43965012 0.07118317 0.19483896 0.06159698
-0.4122358 0.5247857 0.46081388 -0.1826064 0.5907728 0.09272593 -0.22886959 -0.23219208
-0.20170139 -0.015556321 0.07958913 -0.08603104 -0.048030827 -0.12950733 0.08904176 0.14079702
-0.05797607 0.08796854 0.03004165 -0.087314755 -0.094665416 -0.3810584 -0.051373094 0.18589914
0.09103377 -0.08907533 0.010663116 -0.07531792 0.14865571 -0.09567866 -0.20175306 0.18151404
-0.1238098 -0.13266361 -0.11790355 0.17518671 0.17090657 -0.16031317 0.030836795 0.025603995
0.09244701 -0.05998768 -0.00091036945 0.118713215 0.13989544 0.17207238 0.085396394 -0.46954373
-0.008453029 -0.017724384 0.16169412 0.15278982 0.107879184 0.03459596 0.03063945 -0.09636661
-0.057808734 -0.9649174 -0.08380012 -0.2345323 0.13465671 0.021497175 0.08321221 0.0075104088
-0.1793262 -0.07204054 0.08040801 -0.0043315045 -0.05312041 0.073511645 0.01547241 -0.09432313
0.08370507 0.008715673 -0.053629603 -0.11053314 -0.039041743 0.21189481 -0.09107703 0.16254829
0.1268471 0.09993519 -0.07397452 -0.119795345 0.07331007 0.19238219 0.17710309 0.09080811
-0.14157261 0.030045122 0.07553755 -0.09914862 -0.16852584 0.07878561 -0.123860456 -0.0893111
0.14305352 -0.17019038 0.05330056 0.07415633 0.15025805 -0.10340446 0.030207708 -0.14640781
-0.10916787 -0.17145622 0.16929115 -0.17751944 -0.014683887 0.15421887 0.018084884 -0.028249338
-0.1898095 0.11277066 -0.020802185 -0.16726895 -0.19253495 0.179444 0.0063426197 -0.1711902
-0.049894527 -0.0021169037 0.02523917 0.088012114 -0.07931533 -0.10961424 -0.019490987 0.16397615
-0.18015012 -0.14084195 0.09038837 0.09290604 0.06366511 0.13549475 0.15346532 -0.13038115
-0.19477136 -0.14685747 0.14226557 -0.19598529 0.03823686 -0.121286914 -0.08082399 -0.09664772
-0.15635198 -0.12270521 0.14585711 -0.10522142 0.122375794 -0.19100903 0.16347875 -0.07061386
0.0390133 -0.1759169 -0.10752003 -0.0009116584 -0.104419634 0.121981 -0.2236131 0.092987165
00000000: 78df 963d 4cc7 283d 0df1 b43b b382 063e
00000010: 7d59 853d 401b a5bc 14d8 0cbe e4ae 93bd
00000020: ee8c cdbd 1e53 b03d fb9d f63c 669d 093e
00000030: 5924 64bd b35a 423e c938 9a3d f5b1 2b3e
00000040: 80bc 0dbb c385 f63b 058d 1ebe ab55 51be
00000050: 1aba 833d 92f5 d53d 8843 133e 2301 193e
00000060: db89 903d 57c9 973c b8e5 073e e5c2 35be
00000070: b1f4 19bd c018 a23b d169 703d 64b7 1dbd
00000080: 97a5 403e 371e 3fbd 973e 1dbe f031 203d
00000090: ce2d 99bb d004 5dbc cc67 a2bd 43a2 c4be
000000a0: 213c b13c 2476 e73d 5080 71bd 006e a83d
000000b0: ec92 e53c 6beb 4a3e c44d 803b a995 1b3e
000000c0: 8b7e 233d 8e2b 4d3d 4484 223e 09dd 56be
000000d0: 116c 0b3e 90ae 53bd b115 a33d d01e 1ebe
000000e0: 0ab6 a4be 50b7 cdbc 61bd d1bd f04a 2fbe
000000f0: ba74 06be 103f 393d 6953 b63e 76ac 4e3d
00000100: 7384 3abe efaa 553e 0a73 a23b 3782 c1bd
00000110: 6c22 5fbd 713a ccbd 23bf f53d 04d0 3ebe
00000120: 6ba0 e53d 8e6a d53d 82b4 43bf f5e3 623e
00000130: 2730 b23d c2f6 593e 703b 13be cc8f 45be
00000140: a5a7 e23c 8786 373e f2dc 2dbe 99b8 373e
00000150: 51c2 483e 2e05 ac3d 613f a4be 4d8e 0d3e
00000160: 9fa2 27bf a7bc 803e 20a5 1f3f 53c2 86be
00000170: d219 e1be 7bc8 913d dd83 473e 1d4d 7c3d
00000180: 9210 d3be 5b58 063f ccef eb3e 2cfd 3abe
00000190: e33c 173f 18e7 bd3d ca5c 6abe c3c3 6dbe
000001a0: cf8a 4ebe f0df 7ebc a0ff a23d 0b31 b0bd
000001b0: f9bb 44bd 929d 04be 875b b63d 182d 103e
000001c0: 5178 6dbd da28 b43d e819 f63c 14d2 b2bd
000001d0: f1df c1bd 161a c3be 986c 52bd 585c 3e3e
000001e0: ea6f ba3d 206d b6bd 5ab4 2e3c 4840 9abd
000001f0: 3439 183e 2cf3 c3bd 5b98 4ebe d1de 393e
00000200: fe8f fdbd f8d8 07be 6b77 f1bd 2564 333e
00000210: 2202 2f3e 2329 24be 729d fc3c 78bf d13c
00000220: dc54 bd3d a4b5 75bd dca5 6eba ea1f f33d
00000230: c040 0f3e be33 303e 4ee4 ae3d 0968 f0be
00000240: 937e 0abc ba32 91bc 2593 253e ef74 1c3e
00000250: c3ef dc3d 7eb4 0d3d 95ff fa3c db5b c5bd
00000260: dac8 6cbd d404 77bf 669f abbd 3c29 70be
00000270: 73e3 093e d81a b03c 2a6b aa3d e019 f63b
00000280: 4aa1 37be fe89 93bd f4ac a43d 4bef 8dbb
00000290: c994 59bd 468d 963d fe7f 7d3c 7c2c c1bd
000002a0: 906d ab3d 2fcc 0e3c b7aa 5bbd 335f e2bd
000002b0: 3cea 1fbd f4fa 583e 9886 babd 0f73 263e
000002c0: 35e4 013e d2aa cc3d f47f 97bd 4357 f5bd
000002d0: 9723 963d d6ff 443e 835a 353e 9af9 b93d
000002e0: 69f8 10be 3021 f63c 6eb3 9a3d 6f0e cbbd
000002f0: 0a92 2cbe 5a5a a13d 8daa fdbd bde8 b6bd
00000300: 9f7c 123e 6346 2ebe b051 5a3d 46df 973d
00000310: 3fdd 193e b8c5 d3bd 2876 f73c eeeb 15be
00000320: 6793 dfbd 3892 2fbe a95a 2d3e a8c7 35be
00000330: b094 70bc 8deb 1d3e c026 943c 286b e7bc
00000340: 6c5d 42be 4ef4 e63d 5869 aabc 8d48 2bbe
00000350: e227 45be 2bc0 373e c0d5 cf3b 7c4c 2fbe
00000360: 345e 4cbd c0bb 0abb 60c2 ce3c b23f b43d
00000370: 1370 a2bd 6e7d e0bd 90ab 9fbc 5de9 273e
00000380: 4679 38be df38 10be 8a1d b93d 8645 be3d
00000390: da62 823d 23bf 0a3e 0326 1d3e a382 05be
000003a0: 2572 47be ce61 16be 11ae 113e 5eb0 48be
000003b0: 419e 1c3d 4665 f8bd 0c87 a5bd 3def c5bd
000003c0: bc1a 20be de4c fbbd 915b 153e 547e d7bd
000003d0: 29a0 fa3d df97 43be f966 273e 009e 90bd
000003e0: 69cc 1f3d 8f23 34be 7633 dcbd 5cfc 6eba
000003f0: f6d9 d5bd 2dd1 f93d d5fa 64be 0e70 be3d

fc2.bias f4 [26]
-0.1926223 0.10836982 -0.07149403 0.66519237 -0.14820807 0.27258673 -0.09533889 -0.14340094
-0.11821111 -0.2587726 0.05501221 0.05846956 0.17388487 0.14859198 0.1995944 0.48054916
0.16014542 0.3002994 -0.128999 -0.01580678 -0.2505154 -0.6305316 -0.162613 -0.043356344
-0.17354083 0.053808812
00000000: c83e 45be fff0 dd3d 766b 92bd 0c4a 2a3f
00000010: dbc3 17be 7d90 8b3e 0941 c3bd b2d7 12be
00000020: ab18 f2bd d87d 84be 7c54 613d c77d 6f3d
00000030: e00e 323e 7f28 183e 7962 4c3e 8a0a f63e
00000040: 29fd 233e d8c0 993e 5018 04be 387d 81bc
00000050: 8e43 80be 856a 21bf 0684 26be 6c96 31bd
00000060: b0b4 31be a166 5c3d

fc3.weight f4 [26, 26]
-0.45028672 -0.26398537 -1.1099207 -1.0674429 0.68215555 -0.36666608 -0.081447884 0.11791916
0.098235235 0.48404917 0.0952992 0.035157964 -0.9156246 0.1126725 -0.1352019 -1.0661558
-0.15499166 -0.7601989 0.35951123 0.006065905 0.36082608 0.3560092 0.12229483 0.028909072
-0.04777366 0.116016194 0.05582406 0.055102065 -0.1273221 0.032036647 -0.08950392 0.1262971
-0.05443108 0.08015938 -0.037418544 -0.110372484 0.025295973 -0.076846026 0.074218646 -0.039663486
-0.101880655 0.055523112 -0.01585257 -0.0068861926 -0.18580398 -0.19380686 -0.046052665 -0.018359011
0.13192014 0.106331065 0.0999123 0.080659226 0.14699598 -0.053418323 -0.1204978 0.0057302564
0.14576514 -0.19546527 0.013610742 -0.06595993 0.08330874 -0.04263304 -0.121344775 -0.11315477
0.073635444 0.08678852 -0.08599589 -0.12087184 -0.14547075 -0.12750646 -0.06882316 -0.07415626
-0.097165 -0.12114175 -0.051149234 0.08694272 0.09273003 -0.085202515 0.09442936 -0.0711933
0.0177356 -0.093088634 0.14373432 -0.0031391084 -0.068906486 0.19530426 -0.016126484 0.0013474226
0.054679945 0.07984011 -0.13560799 0.055350974 -0.10562468 -0.068972066 0.0916519 -0.12868665
-0.031623706 -0.15952758 -0.075184375 -0.050290883 -0.15083702 -0.042500794 -0.010941595 -0.106486544
-0.055121627 -0.16608861 0.021236315 -0.06304312 0.11633322 0.09073032 -0.1952187 0.028540477
-0.045370266 -0.17120442 0.18006013 -0.054975066 0.069405235 0.034046315 -0.026917377 -0.16302426
-0.09496822 0.016317386 0.1203796 0.058913663 -0.061077576 -0.021988679 -0.14523631 0.14763756
-0.16015495 0.06196827 0.0033395803 0.04045963 -0.040584862 0.08145894 -0.12250298 0.101155005
0.0882767 -0.11587164 -0.071036234 0.10896838 0.1185555 0.04839883 0.16620168 -0.04863168
-0.12599742 -0.04763415 -0.15161699 -0.14804357 0.13003163 0.1291792 -0.09396381 0.003051923
-0.045933455 0.09370498 0.04417962 0.015453259 -0.15350437 -0.14830635 -0.16245636 0.075129494
0.17904 -0.16608973 -0.080615096 -0.06572765 -0.045859262 -0.11935708 -0.094777875 -0.18207417
-0.06983434 0.16754614 -0.189933 0.09424575 0.1553149 0.114886865 0.07881506 0.0069504827
0.02775237 0.11571415 0.11065273 0.08964904 0.09983824 -0.13119356 0.07338646 -0.11080572
-0.038924728 -0.38269052 0.12308428 -0.013963404 0.18158543 0.15335308 -0.12225697 0.051038817
-0.0460729 0.0062087206 0.043584503 0.07990882 0.027953971 0.058193304 -0.19094633 -0.01322788
0.011207749 -0.1631307 -0.07160861 0.0746681 -0.11650857 0.15772985 0.021185875 -0.004407477
0.078553125 0.074462816 -0.06953244 0.03210281 0.14480817 0.15024316 -0.16983928 -0.1868664
0.10691424 0.12939234 -0.08389536 0.040402368 0.0846305 -0.19455193 -0.08532415 -0.049435377
0.117837 -0.0113595445 0.17910288 0.12137936 -0.09275917 -0.095474906 0.05397995 -0.16567701
0.07101269 0.1820013 0.0125344 -0.030616634 0.21880208 0.12217238 -0.18101084 0.30395058
-0.020741249 0.16126002 -0.11132702 -0.03298568 0.08651729 0.25504357 0.2367155 0.06945575
0.16209996 0.21187004 0.17558043 -0.14833787 0.16791889 0.025647506 0.0066858865 -0.047649764
00000000: fb8b e6be 1729 87be e211 8ebf f8a1 88bf
00000010: bfa1 2e3f a8bb bbbe 26ce a6bd 9a7f f13d
00000020: 8e2f c93d 4bd5 f73e 3a2c c33d cc01 103d
00000030: 6066 6abf d7c0 e63d 5e72 0abe cb77 88bf
00000040: 22b6 1ebe 659c 42bf db11 b83e 80c4 c63b
00000050: 32be b83e d646 b63e b675 fa3d b8d2 ec3c
00000060: 50ae 43bd e699 ed3d c5a7 643d b4b2 613d
00000070: b960 02be dc38 033d d54d b7bd 0754 013e
00000080: 20f3 5ebd 9a2a a43d 3044 19bd f80a e2bd
00000090: 8039 cf3c 7361 9dbd f2ff 973d 2e76 22bd
000000a0: cea6 d0bd 346c 633d 40dd 81bc 92a5 e1bb
000000b0: 6643 3ebe 4e75 46be b8a1 3cbd a365 96bc
000000c0: 1316 073e 1ac4 d93d d29e cc3d aa30 a53d
000000d0: 1d86 163e 2ccd 5abd 8dc7 f6bd e0c4 bb3b
000000e0: 7543 153e 0c28 48be 97ff 5e3c 0016 87bd
000000f0: c69d aa3d fc9f 2ebd 9c83 f8bd b0bd e7bd
00000100: 2ece 963d 2ebe b13d 9d1e b0bd a88b f7bd
00000110: 49f6 14be 0e91 02be 28f3 8cbd 3ddf 97bd
00000120: 72fe c6bd 2a19 f8bd dc81 51bd 060f b23d
00000130: 3ee9 bd3d a87e aebd 2e64 c13d cbcd 91bd
00000140: 404a 913c 41a5 bebd 172f 133e 80b9 4dbb
00000150: d81e 8dbd d7fd 473e b01b 84bc 009c b03a
00000160: 14f8 5f3d 3683 a33d d2dc 0abe b4b7 623d
00000170: c151 d8bd 3a41 8dbd feb3 bb3d 6fc6 03be
00000180: dc87 01bd 335b 23be 44fa 99bd d0fd 4dbd
00000190: 0575 1abe 5015 2ebd 6044 33bc 9e15 dabd
000001a0: 37c7 61bd 2213 2abe c8f7 ad3c c01c 81bd
000001b0: 1c40 ee3d d1d0 b93d 69e7 47be b8cd e93c
000001c0: 2cd6 39bd 3650 2fbe af61 383e 892d 61bd
000001d0: 5524 8e3d 2674 0b3d d581 dcbc d5ef 26be
000001e0: b37e c2bd 0aac 853c 9489 f63d 744f 713d
000001f0: 7b2c 7abd 9a21 b4bc d4b8 14be 4d2e 173e
00000200: a9ff 23be 71d2 7d3d dcdc 5a3b ffb8 253d
00000210: 503c 26bd f2d3 a63d d8e2 fabd 5b2a cf3d
00000220: 6aca b43d 1c4e edbd 727b 91bd d02a df3d
00000230: 3acd f23d da3d 463d c630 2a3e 0332 47bd
00000240: 7805 01be 071c 43bd 7c41 1bbe bc98 17be
00000250: 0327 053e 8d47 043e 1970 c0bd c502 483b
00000260: b824 3cbd 66e8 bf3d b0f5 343d ab2f 7d3c
00000270: 4030 1dbe 9fdd 17be f65a 26be 7edd 993d
00000280: 4356 373e 6d13 2abe 8719 a5bd 389c 86bd
00000290: ecd6 3bbd 7c71 f4bd e71a c2bd a771 3abe
000002a0: 4e05 8fbd 3791 2b3e cc7d 42be ea03 c13d
000002b0: df0a 1f3e ce49 eb3d ca69 a13d e0c0 e33b
000002c0: f058 e33c 8afb ec3d e69d e23d ea99 b73d
000002d0: fe77 cc3d 9b57 06be a44b 963d 1cee e2bd
000002e0: 896f 1fbd 03f0 c3be 9c13 fc3d c3c6 64bc
000002f0: 88f1 393e 9708 1d3e dd61 fabd 140e 513d
00000300: f0b6 3cbd 8672 cb3b aa85 323d 3ca7 a33d
00000310: baff e43c 1a5c 6e3d 6f87 43be c0b9 58bc
00000320: b5a0 373c bc0b 27be 89a7 92bd 97eb 983d
00000330: 0c9c eebd ef83 213e 008e ad3c 996c 90bb
00000340: 76e0 a03d f67f 983d 0667 8ebd 3c7e 033d
00000350: 9848 143e 58d9 193e 59ea 2dbe e859 3fbe
00000360: daf5 da3d 6d7f 043e 55d1 abbd f47c 253d
00000370: c152 ad3d 9f38 47be 6ebe aebd c07c 4abd
00000380: 8654 f13d 621d 3abc bf66 373e be95 f83d
00000390: 85f8 bdbd 5988 c3bd 141a 5d3d 3ca7 29be
000003a0: 1a6f 913d 8c5e 3a3e 165d 4d3c bccf fabc
000003b0: a70d 603e 8335 fa3d e85a 39be 699f 9b3e
000003c0: 8de9 a9bc 5921 253e 6cff e3bd fe1b 07bd
000003d0: fa2f b13d 1295 823e 8c65 723e d13e 8e3d
000003e0: 88fd 253e 76f4 583e 5bcb 333e e2e5 17be
000003f0: eef2 2b3e b81a d23c 4815 db3b 662c 43bd

fc3.bias f4 [26]
-0.5413148 0.038290426 0.0068797334 -0.09994963 -0.1126916 0.109164074 -0.16255993 -0.11657309
0.15345007 0.08053153 -0.17546414 -0.1741517 -0.02577585 0.10131191 0.12575926 -0.1806267
0.16352476 0.09781106 0.15159094 -0.109421596 -0.07430048 -0.011941895 0.093631744 -0.06650965
-0.0783372 0.032378092
00000000: 9b93 0abf 6cd6 1c3d 636f e13b 64b2 ccbd
00000010: dbca e6bd 6a91 df3d 1c76 26be dfbd eebd
00000020: 0422 1d3e b7ed a43d dfac 33be d354 32be
00000030: e027 d3bc 9e7c cf3d 09c7 003e 35f6 38be
00000040: 0973 273e 2a51 c83d a83a 1b3e 6e18 e0bd
00000050: da2a 98bd f0a7 43bc 00c2 bf3d 3636 88bd
00000060: 416f a0bd e49e 043d

out.weight f4 [1, 26]
-1.0542324 -0.18217762 -0.10108921 -0.09576893 -0.0042701624 -0.15825222 0.08839308 -0.10760306
-0.18733856 0.2554682 -0.1255792 -0.10306873 -0.14766961 -0.039677367 0.121081725 0.004426226
-0.16822466 0.17957364 0.202171 -0.14119776 0.18751849 -0.088235766 -0.096022055 -0.17382018
0.21420403 -0.0023164004
00000000: 16f1 86bf c58c 3abe dc07 cfbd 8022 c4bd
00000010: b8ec 8bbb df0c 22be 6e07 b53d fe5e dcbd
00000020: aed5 3fbe bacc 823e d597 00be b315 d3bd
00000030: b436 17be bc84 22bd b2f9 f73d e009 913b
00000040: 1643 2cbe 27e2 373e ea05 4f3e 2596 10be
00000050: d904 403e f4b4 b4bd 36a7 c4bd ebfd 31be
00000060: 4d58 5b3e c0ce 17bb
